…
etensors:   0%|          | 0.00/5.59G [00:00<?, ?B/s]","application/vnd.jupyter.widget-view+json":{"version_major":2,"version_minor":0,"model_id":"00e7b96a10e84ca685023722f3242d86"}},"metadata":{}},{"output_type":"display_data","data":{"text/plain":"generation_config.json:   0%|          | 0.00/111 [00:00<?, ?B/s]","application/vnd.jupyter.widget-view+json":{"version_major":2,"version_minor":0,"model_id":"e9432579f8bd48d3877f438f15b75db5"}},"metadata":{}},{"execution_count":9,"output_type":"execute_result","data":{"text/plain":"StableLmForCausalLM(\n  (model): StableLmModel(\n    (embed_tokens): Embedding(50304, 2560)\n    (layers): ModuleList(\n      (0-31): 32 x StableLmDecoderLayer(\n        (self_attn): StableLmSdpaAttention(\n          (q_proj): Linear(in_features=2560, out_features=2560, bias=False)\n          (k_proj): Linear(in_features=2560, out_features=2560, bias=False)\n          (v_proj): Linear(in_features=2560, out_features=2560, bias=False)\n          (o_proj): Linear(in_features=2560, out_features=2560, bias=False)\n          (attention_dropout): Dropout(p=0.0, inplace=False)\n          (rotary_emb): StableLmRotaryEmbedding()\n        )\n        (mlp): StableLmMLP(\n          (gate_proj): Linear(in_features=2560, out_features=6912, bias=False)\n          (up_proj): Linear(in_features=2560, out_features=6912, bias=False)\n          (down_proj): Linear(in_features=6912, out_features=2560, bias=False)\n          (act_fn): SiLU()\n        )\n        (input_layernorm): LayerNorm((2560,), eps=1e-05, elementwise_affine=True)\n        (post_attention_layernorm): LayerNorm((2560,), eps=1e-05, elementwise_affine=True)\n        (dropout): Dropout(p=0.0, inplace=False)\n      )\n    )\n    (norm): LayerNorm((2560,), eps=1e-05, elementwise_affine=True)\n  )\n  (lm_head): Linear(in_features=2560, out_features=50304, bias=False)\n)"},"metadata":{}}]},{"cell_type":"code","source":"import torch\ntorch.backends.cuda.enable_mem_efficient_sdp(False)\ntorch.backends.cuda.enable_flash_sdp(False)","metadata":{"execution":{"iopub.status.busy":"2024-07-22T01:45:57.681320Z","iopub.execute_input":"2024-07-22T01:45:57.681766Z","iopub.status.idle":"2024-07-22T01:45:57.687054Z","shell.ex
…
